cifar_net.pth (torch_old, 249582 bytes, 10 tensors)

conv1.weight f4 [6, 3, 5, 5]
000000 f8 ca 1e be 87 0c 9c be eb 8b a8 be cd be ab be
       -0.15507114 -0.30478308 -0.3291925 -0.33544007
000010 a6 65 7b be 48 78 c0 be 75 3e b3 be 42 99 c6 be
       -0.24550495 -0.37591767 -0.35008588 -0.387888
000020 75 60 8d be 37 ef 47 be 3b 23 5e 3d fa 26 cd 3d
       -0.27612653 -0.19524847 0.054232817 0.100172
000030 c5 af 5d 3e e9 62 18 3e 48 26 22 3e 4a 00 98 3e
       0.21649082 0.14881481 0.15834916 0.2968772
000040 fd 0d eb 3e 33 11 fb 3e 6d 1b e6 3e b7 8c ad 3e
       0.4590911 0.4903656 0.449428 0.3389642
000050 18 0f 9b 3e 1a c5 86 3e 84 c7 83 3e 50 58 fe 3d
       0.30284953 0.26322252 0.25738156 0.12419188
000060 8c 2c 26 3e 79 fc cb 38 53 f7 15 bc 6e 04 0c be
       0.16227931 9.726821e-05 -0.009153205 -0.13673565
000070 90 a6 35 bd 7a c4 08 bd 51 98 eb bd b1 bf 84 be
       -0.0443483 -0.0333905 -0.115036614 -0.259275
000080 21 de 59 bd 7e a6 00 be c9 15 3c be 90 fc c3 bc
       -0.053190354 -0.12563512 -0.18367685 -0.023924142
000090 eb a5 01 3e 53 86 68 3d db f7 0a 3e 9c 7f 96 3d
       0.12660949 0.056768727 0.13571112 0.07348558
0000a0 5b 04 a9 bc f5 f3 43 3e 94 b3 16 3e af 70 ac 3d
       -0.02063196 0.19136031 0.14716941 0.0841993
0000b0 7b 3a b2 bc bd a8 c3 ba 84 69 c1 bd f8 7d 6c be
       -0.021756401 -0.0014927607 -0.09443954 -0.23094928
0000c0 2e f6 6d be 93 81 31 be 37 34 7b 3d 98 0b 08 3e
       -0.23238441 -0.17334585 0.061329093 0.13285673
0000d0 0e 7d 16 3e 94 84 4d 3e 37 f7 6d 3e c1 c3 1d be
       0.14696142 0.20070106 0.23238836 -0.15406705
0000e0 ff ed 18 be 20 7a a5 bd 98 71 fe 3d bb 78 3c 3e
       -0.14934538 -0.08079934 0.1242401 0.1840543
0000f0 08 b5 93 bd c2 67 39 3d 51 39 71 3e f2 ab a4 3d
       -0.07212263 0.045264967 0.2355702 0.080406085
000100 0c bf e9 3c e8 5e 2f 3d 69 57 c6 3d 64 6d d8 3d
       0.028533481 0.04281512 0.09684641 0.105677396
000110 7a c7 21 3e 3a a4 b9 3c b9 6e fd bb 5f 91 03 be
       0.1579875 0.022661317 -0.0077341464 -0.12848423
000120 09 b9 28 be 72 28 3c be cc ef 56 be c3 22 4e 3e
       -0.16476835 -0.18374804 -0.20989913 0.20130448
000130 c3 0f 85 3e 51 1b a0 3e 25 b7 63 3e 8e 7c ed 3d
       0.25988588 0.3127084 0.22237833 0.115960225
000140 11 e1 dc 3d bc 4c 0d 3e 69 2b 09 3e bf 5d 63 3e
       0.107851155 0.13798803 0.13395466 0.2220373
000150 87 f7 59 3e e9 fc 10 bd cd 20 7c be 23 d4 1a be
       0.2128583 -0.035397444 -0.24621888 -0.15119986
000160 47 80 55 3d 6d 93 48 3e 64 61 d2 bd 8f 5a d0 be
       0.052124288 0.19587488 -0.10272482 -0.4069409
000170 d0 d8 69 be 0a ac c6 3d 7b 77 9c 3e 0b d4 3d be
       -0.22836614 0.097007826 0.30559906 -0.18537919
000180 8a 40 fa be cb 6d c1 be b4 66 f8 bd f9 e7 d6 3d
       -0.48877364 -0.37779078 -0.12128964 0.10493464
000190 0e 35 6b be 35 a8 90 be af c9 6a be db 60 8d be
       -0.22969458 -0.28253332 -0.22928499 -0.27612957
0001a0 8d 0d 8a be 2b 7a 52 be e9 f3 0e be 73 10 99 be
       -0.26963463 -0.20554416 -0.13960232 -0.29895362
0001b0 49 c0 09 bc ce a4 55 bc ed b7 84 bd 55 9a bc be
       -0.008407661 -0.013039781 -0.064803936 -0.36836496
0001c0 90 6f ae be bd a6 99 3b da 5b 08 3e 38 27 1d 3d
       -0.3406949 0.004689066 0.13316289 0.03836748
0001d0 10 c3 9d be 89 08 4d be b5 47 2c 3e 09 12 6b 3e
       -0.30812883 -0.20022787 0.16824229 0.22956099
0001e0 52 09 1d bd 18 02 2a be cb 95 57 be 4b 2c 60 3e
       -0.038338967 -0.16602361 -0.21053235 0.21891896
0001f0 cd fb 69 3e 56 08 ca bd 4c 58 22 bd ff 79 a0 bd
       0.2284996 -0.09864871 -0.039634988 -0.07835769
000200 ee 0d 29 bd 6e 88 4b bc a2 de c5 bc 23 6b 34 3d
       -0.04127305 -0.012422664 -0.024154011 0.044047486
000210 36 5a 1a bc 0d 3f d6 bc ce c1 27 3e 2d 4a 90 3d
       -0.009420922 -0.026153112 0.16382524 0.07045398
000220 88 12 d4 bd dc 75 9b 3d d0 76 2a 3e 0b ea 84 3e
       -0.10355097 0.07590839 0.16646886 0.2595981
000230 2e db a1 3d 1e 6e 1a be e0 37 35 3d 5b ee fb 3d
       0.07903133 -0.15081069 0.04424274 0.12301322
000240 9c e8 7f 3e c2 5b f0 3d 57 ad fc bc e0 48 74 bd
       0.24991077 0.117362514 -0.030844374 -0.05963981
000250 2c 59 3c 3e e9 91 96 3e a9 cc 83 3d 18 bd a7 bd
       0.18393391 0.29408196 0.0643552 -0.08190364
000260 b4 d5 97 bd 0a f5 3e 3e dc 88 2a 3d 55 cb 8b be
       -0.074138075 0.18648162 0.041634426 -0.27303568
000270 29 13 08 be cb 2e 88 3e 30 61 0a 3e 36 30 d0 bd
       -0.13288559 0.265982 0.13513637 -0.101654455
000280 02 37 7c be 8d 27 82 be 71 4b 0e 3f b6 3d a7 bd
       -0.24630359 -0.254208 0.55583864 -0.08166067
000290 14 96 fa bd 38 88 38 3e 8b 39 ea 3e c9 0a 90 3e
       -0.122356564 0.18020713 0.45747027 0.28133228
0002a0 4c 73 1e bf fd 15 9f bd 6d c7 6d 3d 60 d9 7f bd
       -0.6189468 -0.07767866 0.058051515 -0.062463164
0002b0 fe f0 bb be a1 bf 13 bf b0 eb 35 3e d9 ba e5 3d
       -0.367073 -0.5771428 0.17765689 0.11217279
0002c0 b0 6f 06 3d 15 fe 47 be d9 2e ce 3d 80 f3 f8 bd
       0.032821357 -0.19530518 0.10067529 -0.12155819
0002d0 aa 84 01 be c5 ff 84 bd 36 70 4c 3e 8d a5 37 3e
       -0.12648264 -0.06494097 0.1996468 0.17934246
0002e0 01 49 d9 bd 2f f4 3a be d7 9c e6 bd 69 f4 cf 3e
       -0.106096275 -0.18257211 -0.112603836 0.40616158
0002f0 59 7d 3e 3d b9 03 0d be 72 6d d8 3e 3d 56 26 3f
       0.04650626 -0.13770951 0.42271 0.6497534
000300 85 29 d7 3e eb 5a 21 bf 76 f3 4e bc eb 31 8f 3d
       0.42023864 -0.63029355 -0.012631288 0.06991943
000310 3e 25 21 3e 5d e2 6a be 57 ec ac be d1 a1 ba 3e
       0.15736863 -0.22937913 -0.33774063 0.3645158
000320 7c 62 7e bb 2b c3 94 bd e4 98 49 be 50 f1 bc bd
       -0.0038816025 -0.07263788 -0.1968723 -0.09225714
000330 59 cd 87 bc cb 9e 77 be 36 63 37 be 39 79 46 3e
       -0.01657741 -0.24181668 -0.1790894 0.1938218
000340 bc e1 c2 3d d4 4d 07 be 36 b0 5e be fa 12 5e be
       0.09515712 -0.13213283 -0.21746907 -0.21686926
000350 8f 67 e2 3e 9c 67 3a bc f9 ab 90 3c e7 d2 8d 3e
       0.44219634 -0.011377241 0.017660128 0.27699968
000360 2b 02 e5 3e 43 75 94 3e 43 1a 0e bf 9e f6 e1 3c
       0.44728217 0.28995714 -0.5550882 0.027583417
000370 d9 f2 05 bc 82 43 fc bc 80 4c 90 be 25 1a 90 be
       -0.008175575 -0.030793909 -0.28183365 -0.28144947
000380 35 76 b3 3e 3d 49 47 bd 16 d1 90 3d c6 2f bb bc
       0.35051122 -0.04865383 0.0707113 -0.022849929
000390 23 c5 b6 bd e5 16 80 3e f4 a7 e7 3c aa 07 69 3e
       -0.089243196 0.25017467 0.028278328 0.2275683
0003a0 a7 2d ab 3c 37 50 57 be f1 e0 77 3d 8f 5a 02 3d
       0.020895792 -0.21026693 0.060517255 0.031824645
0003b0 11 44 54 3e 1b e0 6b 3e fe 51 b8 bd aa 67 1d bd
       0.2072909 0.23034708 -0.09000014 -0.03842894
0003c0 15 27 32 3d 82 f7 24 3e e8 45 22 3e 2e ea d7 bc
       0.043494303 0.16110042 0.1584698 -0.026356783
0003d0 bf 10 08 bd 9f 7d 4e bd cb 2d 65 3d f7 01 02 3e
       -0.033219095 -0.05041277 0.055951875 0.12696062
0003e0 09 dd 7b 3d 28 75 29 3d e0 fe 33 bd 61 26 76 3d
       0.061490092 0.041371495 -0.04394424 0.060095195
0003f0 3c 88 9f ba b2 c6 a3 be 06 b8 b5 bd cc 09 3e bd
       -0.0012171338 -0.3198753 -0.0887299 -0.04639606

conv1.bias f4 [6]
000000 0b 5f c9 be 71 08 93 be e5 c8 58 3c de c9 41 be
       -0.39330325 -0.28717378 0.013231491 -0.18924662
000010 a2 b1 d1 be ef 3f b9 3e
       -0.40955836 0.3618159

conv2.weight f4 [16, 6, 5, 5]
000000 c1 33 0f be bc 7e a0 bc 4c 82 d2 bc 8a e8 42 bb
       -0.13984586 -0.019591682 -0.025696896 -0.0029740655
000010 46 65 2d 3c 34 34 14 be 81 53 22 be 4f 46 12 3d
       0.0105832275 -0.14473039 -0.15852167 0.035711583
000020 ee bd 55 bd ec b1 b5 bc f4 b7 e3 bd b1 28 89 bd
       -0.052183084 -0.022179566 -0.11119071 -0.066972144
000030 c5 01 99 bd be 78 01 bd 6a df 2c 3d 6f 90 c9 bd
       -0.07471041 -0.03160929 0.04220525 -0.09842002
000040 b7 0f d3 bd 1b dc 0a be a2 d6 89 3d 32 5d 28 3b
       -0.10305732 -0.13560526 0.06730391 0.0025690314
000050 75 ad 37 be 75 58 96 bd cc e5 8a 3d f6 7a a7 3d
       -0.17937262 -0.073410906 0.067821115 0.0817775
000060 e5 2a 94 3c 84 1d 2e be 06 06 8c be b4 f0 a5 3c
       0.01808686 -0.17003447 -0.27348346 0.020256378
000070 db 1c 9a 3c e9 36 11 3e ae d4 87 be cc 59 48 be
       0.018812587 0.14181103 -0.2652945 -0.19565505
000080 3f 32 20 be b8 96 e2 3b 6d b1 37 3e ea 88 95 be
       -0.15644167 0.0069149397 0.17938776 -0.2920602
000090 37 a6 34 be 85 dd 30 be a0 0f 08 3d 07 d0 6c 3d
       -0.17641531 -0.17272003 0.033218026 0.057815578
0000a0 2d 45 7e be 31 05 7c be a3 98 0c 3c 5a 55 ce 3d
       -0.24831076 -0.24611355 0.008581313 0.10074873
0000b0 86 ec 90 bd 7e cf 9c be b6 83 3a be a9 a6 ee bd
       -0.07076363 -0.30627054 -0.18214306 -0.11652882
0000c0 d9 5b f6 bc 2d ea 22 be e1 fc d9 bb 84 20 8a 3d
       -0.030073093 -0.15909643 -0.00665246 0.06744483
0000d0 63 b8 6e 3d c3 a8 4d 3e 60 57 23 3e 75 74 5a bd
       0.058281314 0.20083909 0.159513 -0.05333372
0000e0 f5 bb 2d bd c2 dc 5c 3c 1e 40 3f 3e 3f cb 9a 3d
       -0.042415578 0.013480367 0.18676803 0.07558297
0000f0 88 25 06 be ce d3 4f 3e 9f d0 85 3e 4f ba 9f 3d
       -0.13100255 0.20295641 0.26135728 0.077992074
000100 b4 8e e9 bd e1 37 ed 3d 84 e9 48 3e 3c b3 17 3d
       -0.114041716 0.11582924 0.19620329 0.037036166
000110 20 e3 9d bc fa 95 b2 3d d3 4e 3f bb f8 41 c2 3d
       -0.01927334 0.08720012 -0.002919127 0.09485239
000120 77 03 e4 3d fe ed 76 3e 66 9c 15 3e fd 7f 1b be
       0.11133473 0.24114224 0.14610443 -0.15185542
000130 25 5f 7e bb 66 5d 56 bd f0 33 08 3d 38 24 b3 bd
       -0.0038814035 -0.052335165 0.033252656 -0.087471426
000140 c8 ba d0 bd 69 ea 68 bd 58 6c a4 3d 7a f5 0a 3e
       -0.10191876 -0.056864176 0.080284774 0.13570204
000150 7f 60 18 3e 1a ac 29 be b6 7b 03 bd 8c 33 75 bd
       0.1488056 -0.16569558 -0.0321004 -0.059863612
000160 6d 55 3f 3e 6d 1c fe bb a3 47 a8 3b 88 65 66 3c
       0.18684931 -0.0077548535 0.005135493 0.014062293
000170 d5 6d 67 bd 56 75 0f 3c 9d f1 01 3e 3e 73 43 bd
       -0.05650123 0.008756002 0.12689824 -0.047717325
000180 c2 00 92 bc 93 cf 81 bd c0 4b af bd bd ea 5e bc
       -0.017822627 -0.0633842 -0.0855937 -0.013605771
000190 b0 02 28 3d a7 97 01 3e b8 13 8a 3a e9 9e f0 bc
       0.041018188 0.12655507 0.0010534441 -0.02937265
0001a0 e6 6f 67 bd 68 62 0c bc dc 77 8d bd f6 92 ba bd
       -0.0565032 -0.008568384 -0.06907627 -0.09110062
0001b0 66 dd 84 bd 4d 80 62 3d d9 43 89 bd e5 1a e1 bd
       -0.06487541 0.05529814 -0.06702394 -0.10991458
0001c0 ae 1a 8b bd 9d fb 61 3d 28 48 b0 3d 5b a9 ec bd
       -0.06792198 0.055171598 0.08607513 -0.115557395
0001d0 85 58 ce bd 33 87 b0 bc 2a 84 45 bd be 52 e8 bd
       -0.100754775 -0.021548843 -0.048221745 -0.11343907
0001e0 03 1a 75 bd fd ec e1 3c 6b a2 87 bd 08 6f 5d bd
       -0.05983926 0.027578825 -0.06622776 -0.054060966
0001f0 0e c3 a5 bc 5a 3d 33 be f3 ae 07 be a1 54 ef bd
       -0.02023461 -0.17503873 -0.13250332 -0.116860636
000200 ae 4b 0a be 02 29 0e bb cb e4 90 bd 48 6b e7 bc
       -0.13505432 -0.0021691923 -0.07074889 -0.028249398
000210 02 78 13 be 2e 99 6c bd e0 8f ee 3c 66 c0 89 bc
       -0.14401248 -0.05776327 0.02912134 -0.016815376
000220 ee 9b 77 bd d7 6c 7f bd c9 cc 82 bc ba 1c 57 bd
       -0.06045144 -0.062359657 -0.01596679 -0.05251763
000230 02 25 ec bc 41 3f 4a bd bc d6 98 bd 8d 9f c5 bd
       -0.02882624 -0.04937673 -0.07462832 -0.096495725
000240 61 cc 72 3d 62 ed 3c be 58 ac 3c be c8 38 4e be
       0.059276942 -0.1844993 -0.18425119 -0.20138848
000250 16 84 11 bd 41 6d be bd 3d 57 d4 3c 26 f7 1e 3e
       -0.035526358 -0.09298182 0.025920505 0.15523967
000260 e5 e6 a9 3d 66 c7 be 3d c1 ea 69 3d d1 ac b0 3d
       0.08295993 0.09315376 0.057108644 0.08626712
000270 32 cf 74 3e 15 03 84 3d 27 13 f1 3c b2 14 ef bd
       0.23907164 0.064459 0.029428078 -0.11673869
000280 42 df 1b 3e 2d 6a 3d 3d fc f5 1d bd b3 e5 15 bd
       0.15221885 0.046243835 -0.038564667 -0.03659601
000290 a8 af 5e bc e3 62 1d be a4 da 34 be 11 be d0 bd
       -0.013591684 -0.15369754 -0.1766153 -0.10192502
0002a0 ef 52 8b bd ae 0a 83 3b 18 16 7d bd a6 8a b3 bd
       -0.06802928 0.003999076 -0.06178865 -0.087666795
0002b0 fb 17 1c be 4e 7d 55 be d0 08 de bd e7 bb 02 be
       -0.15243523 -0.20848581 -0.108415246 -0.12766992
0002c0 49 81 ae bd a1 c6 33 bd aa cd 92 bc 4e f6 bc 3d
       -0.08520753 -0.0438906 -0.017920334 0.092266664
0002d0 22 0b ac bc e3 70 2b bd 16 3d 14 be 45 8b 8a 3d
       -0.021001402 -0.041855704 -0.14476427 0.06764845
0002e0 fe 9b 07 3e 04 39 04 be dc 39 89 bc 68 31 67 bd
       0.132431 -0.12912375 -0.016751222 -0.0564436
0002f0 9a 5a 18 3c aa 32 22 3d a7 97 a5 bd 33 ac 27 be
       0.009298945 0.0395991 -0.08085566 -0.16374283
000300 77 0c ca bc 3d 0f 70 3d b0 7b bd 3d c1 20 9c bd
       -0.024664147 0.058608282 0.09252107 -0.07623435
000310 ae af 27 be 64 01 74 3d 47 26 c6 3d e5 9e e7 3d
       -0.1637561 0.05957164 0.096752696 0.113096036
000320 ae 5b 0a be b8 e3 86 bc 9d 57 5d bc 3e 13 8c bd
       -0.13511536 -0.016466007 -0.013509658 -0.06839608
000330 64 5b f0 bd ba c3 6a be 0d a7 e6 bd ea 11 57 3d
       -0.117361814 -0.22926226 -0.11262331 0.05250732
000340 7a 08 61 3d c1 3a c5 bb 5d ef c3 bd 2a a2 2b be
       0.054939725 -0.006018967 -0.09567139 -0.1676108
000350 72 2a a7 bd 59 bf 05 bd a8 f4 62 bc 51 0d 00 be
       -0.08162393 -0.032653186 -0.013852276 -0.1250508
000360 11 f1 11 be 51 a4 ca bd 03 ad b6 bd 9f 2a 16 3d
       -0.14252116 -0.09894622 -0.08919718 0.03666174
000370 9a 42 29 be f8 0e 96 bd d4 54 39 3d 89 40 b7 bd
       -0.16529313 -0.07327074 0.045246914 -0.08947856
000380 03 db 23 bd 8b ca 8b 3e 1c fd af 3c 25 e5 4f bc
       -0.040003788 0.27302966 0.021482997 -0.01268891
000390 af 20 93 bb 23 30 98 bb 06 03 22 bc db c0 14 3e
       -0.00448998 -0.00464441 -0.009888416 0.14526694
0003a0 4e 55 fc 3d 25 1a cc 3d b0 86 1d 3e 95 af 21 3d
       0.12320958 0.09965924 0.1538341 0.03947409
0003b0 af 2b 10 3e a0 4f 0e 3e 93 4e 99 bb 5a b2 4d 3e
       0.14079164 0.13897562 -0.004678556 0.20087567
0003c0 3b 37 41 bd 3c ef ed bc 03 02 33 ba fe 0c 56 3d
       -0.047171813 -0.02904474 -0.0006828608 0.052258484
0003d0 77 1f 5c 3e be 67 96 bd 81 08 88 3a bf 24 da 3d
       0.21496378 -0.07344006 0.0010378511 0.1065154
0003e0 6d 10 50 3d 64 22 c6 3d 80 44 8d 3d 1e 24 3e 3e
       0.050796915 0.09674528 0.06897831 0.18568465
0003f0 9e 80 10 3e e5 b9 df b9 58 04 d9 bc ae 10 8a 3b
       0.14111564 -0.00042672377 -0.02649133 0.004213414

conv2.bias f4 [16]
000000 ff 6b 4a 3f a4 91 42 be 36 97 1d be 67 4a fc 3d
       0.7907104 -0.1900087 -0.15389714 0.123188786
000010 bd b5 c0 3e c3 08 f6 be 77 e0 60 3c 5c 98 03 3f
       0.37638655 -0.4805356 0.013725392 0.51404357
000020 5d 3d bb bd ce be b6 bd 28 b8 1b bf ef 9d 23 3e
       -0.091425635 -0.08923112 -0.60827875 0.15978216
000030 68 f7 77 be 3b 3f 32 bc 99 d9 a3 be ca ba 89 3e
       -0.24215472 -0.010879333 -0.3200195 0.2690032

fc1.weight f4 [120, 400]
000000 3f e2 e6 bc 19 8f ca 3b 79 d4 38 bb 3e a7 23 bc
       -0.028184054 0.0061816094 -0.0028202815 -0.009988604
000010 bb 53 77 bc af af 8b bd 62 af 19 bd 17 61 13 3d
       -0.0150956465 -0.06820618 -0.037520774 0.035981264
000020 2c 74 41 3d 4e 11 4b bb 76 96 be bd 71 c2 c9 3b
       0.04722993 -0.0030985656 -0.09306042 0.0061572124
000030 64 1c af 3c 47 18 23 3d 23 b4 81 3d c5 9d 81 bd
       0.021375842 0.039818075 0.063331865 -0.0632892
000040 db 04 d3 bc 42 0a 31 3d 12 78 1d 3d fb 87 48 3b
       -0.025759151 0.043222673 0.038444586 0.0030598629
000050 ae a9 da bd a7 61 85 bd 9a c9 3d bd 54 c5 09 bc
       -0.10676895 -0.06512766 -0.04633484 -0.008408863
000060 bf 0b 85 ba 2a 68 6a 3c 35 ec 35 3c 15 f7 40 3d
       -0.0010150595 0.014307061 0.011103679 0.047110636
000070 a2 0b 97 3d 87 16 0e 3c b3 aa 78 bb dc 16 13 bd
       0.07375266 0.008672363 -0.0037943542 -0.035910472
000080 67 9f 86 bd 4a 8c 51 bd b8 e6 a0 3d cb ea e2 bb
       -0.06573372 -0.05115918 0.07856506 -0.006924962
000090 59 32 2c 3c 36 46 b5 bc 45 df c9 bc 2b a8 7b 3c
       0.010510051 -0.022128206 -0.024642596 0.015359919
0000a0 26 a3 49 bd c4 b1 3d bb 3f 0b 73 bc 53 28 02 bd
       -0.049227856 -0.0028945068 -0.014834224 -0.031776737
0000b0 1b 83 28 3d 61 27 48 bd 5d 9c 15 bd 33 bb a9 bd
       0.041140657 -0.04886568 -0.036526073 -0.082876585
0000c0 59 e8 89 bd 55 ac c1 3c b4 7a d8 bc bb 76 56 3d
       -0.0673377 0.023641745 -0.026425697 0.052359324
0000d0 ec 8e ae 3d 5a c5 a2 3c d9 21 b6 bd 0b 73 bd 3c
       0.08523354 0.019869495 -0.08893175 0.023126146
0000e0 ce dd 2c 3d a0 a9 84 3c ea da 4f 3a c6 c4 74 bd
       0.042203717 0.016194165 0.0007929044 -0.05975797
0000f0 53 f3 c4 3c b7 c9 b6 3c 46 14 e2 3c 41 79 80 bb
       0.024041807 0.022312982 0.027597558 -0.0039207046
000100 2c de 38 bd 5f 57 1e 3c f5 bb 71 bc 63 7f cd bc
       -0.045133755 0.009664386 -0.014754285 -0.025085157
000110 29 52 c9 3b 29 d9 50 bd 34 f5 ff bd 0d 49 ba bd
       0.0061438275 -0.05098835 -0.12497941 -0.090959646
000120 e9 c0 fe bc 8c d8 67 bd c7 28 e6 3a 40 39 8a 3c
       -0.031097846 -0.056603 0.001755976 0.016873002
000130 e5 f0 d6 bb 2d b2 85 3c c0 bc 3a bc 21 76 55 bd
       -0.0065594786 0.016320312 -0.011397541 -0.05211461
000140 e9 82 04 3d 11 65 eb bc 35 ba 22 bd 0d 89 ba 3c
       0.03235141 -0.028734716 -0.039728362 0.022770429
000150 53 6d 09 bd 63 a4 08 bc 7c 90 67 bc 84 7a 64 3d
       -0.033551525 -0.008339974 -0.014133569 0.055780903
000160 ca 2c f7 3c 2e cf 09 bd 25 87 a9 3b 6e 71 b3 3a
       0.030172724 -0.033644848 0.005173581 0.0013690421
000170 51 ef 01 3d c7 54 10 3d ba 28 3d 3d 04 a0 61 bc
       0.03172237 0.0352371 0.046181418 -0.013771061
000180 40 9f 63 3d e8 60 b6 bc c5 86 2e 3d fc b2 80 3c
       0.055571795 -0.022263005 0.042608995 0.015710346
000190 ac cb e8 3d 63 7c 2a 3d f6 c5 15 3d be 09 81 3b
       0.11366972 0.04162253 0.036565743 0.003937929
0001a0 ab ae 81 3d 43 25 6f bc 33 a3 64 bb 2b d6 94 3c
       0.063321434 -0.014596286 -0.0034887313 0.01816853
0001b0 e9 d4 5e 3d 80 74 b4 bc d8 59 07 bc 30 a2 45 bc
       0.054402266 -0.022028208 -0.0082611665 -0.012062594
0001c0 53 b2 5c bd b0 c6 ea 3c 93 36 8c bd df 51 d1 bd
       -0.053881 0.028659195 -0.06846347 -0.10220694
0001d0 87 9d ad bc b2 68 10 3d 38 96 f4 3c 7b 75 3f bd
       -0.021193279 0.035256095 0.029856786 -0.046742897
0001e0 e4 e4 6a bd 99 b0 2a 3b d5 e8 4d bc 26 fa 1f 3d
       -0.057347193 0.0026045202 -0.0125677185 0.03905692
0001f0 14 e5 43 3c 14 c5 63 bb 98 76 08 bc ac d8 0c 3d
       0.011956472 -0.003475492 -0.008329056 0.034386322
000200 e3 d6 b4 bb 4b f0 ca 3d a2 60 66 3c 6e 3a 13 bd
       -0.0055187806 0.099091135 0.014061125 -0.035944395
000210 23 dd d1 bc 1e 7c 51 3d 7f 1b 9a 3d 92 e6 00 bd
       -0.025618142 0.051143758 0.07524776 -0.03146989
000220 6e 6b 58 bd 36 e8 eb 3c 87 23 7c bb c0 7a a0 bc
       -0.052836828 0.02879725 -0.0038473324 -0.019589782
000230 15 fd 3c bd 8f 14 18 3c 19 9d b9 bc 81 83 5a bd
       -0.046139795 0.009282245 -0.022657918 -0.05334807
000240 98 09 59 bd aa 0e 98 3e b0 18 af 3d 5c 74 cd 3d
       -0.052987665 0.29698688 0.08549631 0.100319594
000250 7e a9 ad 3c d0 c2 13 3e ff 80 9c ba 41 9f 0c bd
       0.021198984 0.14429784 -0.0011940299 -0.034331564
000260 8f 5d db bc 55 d5 24 3c 7d e8 15 3e 5b de 97 bd
       -0.02677801 0.010060628 0.14639468 -0.07415458
000270 d9 89 58 b9 b5 99 09 3d c7 6c 46 3b 7f 02 e9 3c
       -0.00020650717 0.033593852 0.0030277239 0.028443573
000280 fa e4 44 bd 1e 0b 89 3d 07 f2 8a 3c 1a f2 b2 3c
       -0.04806993 0.066915736 0.01696111 0.021843959
000290 ff e2 1e 3d e3 c4 8e bb 82 cc 86 bc af df e8 3c
       0.0387907 -0.004356967 -0.016454939 0.028426973
0002a0 55 7e 8f 3d f3 57 25 3c 03 54 76 bd 51 12 81 bd
       0.07006518 0.0100917695 -0.060138714 -0.06302322
0002b0 83 48 8c bc 84 bc 82 bc 41 1f f6 bc 9a ae bf 3c
       -0.01712442 -0.015959032 -0.0300442 0.023398686
0002c0 dd 40 97 bb dc 8e db 3c 54 a7 66 bc 41 f5 e7 3b
       -0.0046158866 0.02680152 -0.01407798 0.007078797
0002d0 de 9c 12 bd b0 e8 75 3c b1 01 98 3d 3d b3 a6 3c
       -0.03579413 0.01500909 0.074221976 0.02034914
0002e0 4e bc 7b 3d 06 f3 64 bc 8a b6 1f 3d d1 e9 16 bc
       0.06145888 -0.013973957 0.038992442 -0.00921102
0002f0 66 32 92 bc 60 31 b5 3b ba c7 03 bd d5 4c 90 bc
       -0.017846297 0.0055295676 -0.032172896 -0.017614761
000300 b3 94 26 3d f5 2a 09 3c af af 2c 3c 8b f1 3e bb
       0.040669154 0.008372058 0.010539933 -0.002913567
000310 58 a5 ab bd 29 1c 18 bd 73 54 e5 3b 7b c4 3c bd
       -0.08381146 -0.03713623 0.0069985925 -0.046085816
000320 f6 bf 66 3d ef f3 2d 3d cd 4f 32 3c 49 f3 86 bb
       0.056335412 0.04246896 0.010883284 -0.0041183573
000330 29 18 e1 bc 8b e0 9d 3d a3 c4 7f 3d 0b 98 39 bd
       -0.02747734 0.07708844 0.062443387 -0.045311015
000340 de 08 a5 bb 5e ed 5d bd a3 76 ba bb 94 f8 f2 3c
       -0.0050364574 -0.05418145 -0.005690412 0.029659547
000350 02 e1 ab 3c c1 96 55 3c d9 db 9b bd 7a 10 a5 bc
       0.020981316 0.013036431 -0.07610292 -0.020149458
000360 b3 8d ea 3c c8 bf b3 b9 ea b8 13 bd e1 67 80 bd
       0.02863202 -0.0003428443 -0.03606502 -0.06269813
000370 91 c5 ba bd c2 d0 58 bd 8f 8b 77 bd 22 ca 9d bd
       -0.09119714 -0.052933462 -0.060435828 -0.077045694
000380 b4 f5 a5 bd e4 74 d2 3c 07 19 1b bd b5 10 c2 bb
       -0.08103505 0.025690503 -0.037865665 -0.005922402
000390 7e cf 45 3d 91 2f b6 3c 6e ea 23 bd 30 e2 29 bc
       0.048293583 0.022239478 -0.04001849 -0.010368869
0003a0 70 77 69 bb 93 eb 2a bc 05 7a 23 bd 87 b9 ff bc
       -0.0035624169 -0.010432142 -0.03991129 -0.031216396
0003b0 fe 8c 56 bc dd a6 4d 3c 0e 0d bb 38 9a c7 79 bd
       -0.013095139 0.01255199 8.9192865e-05 -0.06098137
0003c0 57 7b d0 bc e0 ef 0b 3d 86 c0 95 bb 13 00 4e 3c
       -0.025449438 0.03416431 -0.0045700697 0.01257326
0003d0 59 8a 50 3b 08 c4 4a bc 09 04 c4 3c 3e 39 7e bc
       0.0031820743 -0.012375839 0.023927705 -0.015516577
0003e0 b0 5a 13 bd 62 dc c0 bc 35 e0 16 3d 0e d2 ab bb
       -0.03597516 -0.023542587 0.036834914 -0.0052435463
0003f0 8f f6 e5 bd 3e 53 01 be 71 30 82 bd 0d 0c ef bc
       -0.11228668 -0.1262941 -0.06356896 -0.029180551

fc1.bias f4 [120]
000000 e4 0b ab bd 97 84 b2 3d 98 60 42 3d 02 37 22 3d
       -0.08351877 0.08716696 0.0474554 0.03960324
000010 f8 37 fa bc 92 5f b6 3d d0 aa b3 b9 7c bc 44 bd
       -0.030544266 0.08904947 -0.00034268806 -0.048031315
000020 63 da 45 3e c7 c2 b4 bc d4 28 52 3c e4 97 73 3d
       0.19321589 -0.022065533 0.012827117 0.059471026
000030 39 cc 9f 3d aa 78 d2 bb f4 31 42 3e 4d 99 3b bd
       0.07802624 -0.0064230757 0.18964368 -0.045800496
000040 5b 81 80 3d 35 3b c6 bb 15 82 5a bd 02 3c 2e 3d
       0.062746726 -0.0060495385 -0.053346712 0.042537697
000050 25 df 0f 3c 5e 74 7a 3d 87 bf 8d bc 1e 28 69 bb
       0.008781229 0.061146133 -0.017303241 -0.003557689
000060 3b ac 0e be 19 08 b1 ba 3b 6f 1b 3d c6 d2 38 bd
       -0.13932888 -0.0013506442 0.037947875 -0.045122884
000070 1d 82 0b 3e fd ce ec 3d ed 3a 02 be 2c ab 90 bc
       0.13623853 0.115629174 -0.12717791 -0.017659746
000080 dd f8 33 3e 2d 3b a3 3d 69 a8 5e bb c4 73 15 bd
       0.17575403 0.07970271 -0.0033974892 -0.036487356
000090 2f 5e b8 b9 d6 a4 94 bb f3 20 2e bd e2 e1 a1 3d
       -0.00035165387 -0.0045362515 -0.04251189 0.07904412
0000a0 bb d1 60 3e ec db 95 3d 64 0d 94 3d c7 44 0c 3e
       0.21955006 0.073173374 0.072291166 0.13698111
0000b0 1f 86 37 3d cc 8e 9e bb a3 a5 45 3d 71 cb 52 3d
       0.044805642 -0.0048388 0.048253667 0.051463548
0000c0 aa 2d 89 3d 9e 85 b4 bd 27 12 15 3e 95 f2 19 bc
       0.06698163 -0.08814548 0.14557706 -0.009396215
0000d0 11 96 ed 3c 8e e6 7b 3c 7b 08 43 3c 82 66 05 be
       0.029002221 0.015374793 0.011903877 -0.13027385
0000e0 0d 47 14 bd 5f 47 2e bd ab f6 79 3c 10 9c 38 3c
       -0.03620057 -0.042548534 0.015256564 0.011267677
0000f0 e2 a3 b3 bd bd ab 0f 3d 87 ec ed 3d 6c 03 80 3c
       -0.087714925 0.03507589 0.1161738 0.015626632
000100 80 db df 3c 38 d1 81 3d 58 b6 0f be 1b 85 b8 bc
       0.027326345 0.063387334 -0.14034402 -0.022524407
000110 47 7f 9f bc 5a 21 57 3e da 62 9c bd d4 3f a6 3c
       -0.01946987 0.21008816 -0.07636042 0.020294107
000120 d1 75 b4 3d 18 78 4b bc bc 66 1e 3e 8a 77 47 3d
       0.08811534 -0.012418769 0.15468878 0.048697986
000130 20 73 68 3d c6 ba b5 3d 17 47 d7 bd f1 85 5a 3d
       0.056750417 0.08873515 -0.10511606 0.053350393
000140 5b 27 38 bb 97 89 d0 3c 25 3a 5f bd bf f5 13 bd
       -0.002809963 0.025456233 -0.05449881 -0.036123034
000150 1b 38 65 bd 7e 55 27 bd 4f eb 8c bb 1f ca 5e 3d
       -0.05596171 -0.040853016 -0.004300512 0.054391976
000160 d8 fd 15 bd 12 22 84 bc 6e 22 ff bd 3b 7a 20 bd
       -0.036619037 -0.016129527 -0.12457739 -0.039179068
000170 fc 5a 0e be d9 4b ce bd 61 b9 cf 3b 69 a7 89 bc
       -0.13901895 -0.100730605 0.0063392376 -0.01680346
000180 fc 20 ce 3c 87 e6 19 bc 86 1c 82 3d 6b f4 d0 bc
       0.025162213 -0.009393341 0.06353097 -0.025507173
000190 3c 22 8e bd 7c 6e 22 bd 40 0b 91 3d f9 38 30 3e
       -0.069401234 -0.039656147 0.07082224 0.17209233
0001a0 63 ee 77 3d 40 21 2c 3e fc 85 9d bc 5d 48 91 3d
       0.060530078 0.16809559 -0.019228928 0.0709388
0001b0 41 ac 95 3b 4d b6 38 3d 67 a2 ed bd 0c 81 ae 3c
       0.0045676534 0.04509573 -0.116032414 0.021301769
0001c0 90 31 28 3d d1 7f 71 bd d8 a4 1b bd 9b 74 07 3d
       0.04106289 -0.058959786 -0.037999004 0.033070188
0001d0 5a 6a 0b bd ea f7 6c 3c 1c 3d 5e 3d 38 55 77 3c
       -0.03403697 0.014463404 0.054257497 0.015096001

fc2.weight f4 [84, 120]
000000 55 68 ee bc 7f f1 17 3d cb 50 cb bd f5 0e a1 bc
       -0.029102484 0.037095543 -0.099275194 -0.019660452
000010 ea fc 8a bd 24 98 8c 3d e1 52 a3 3d 69 ff 28 3d
       -0.06786521 0.06864956 0.07974792 0.041259203
000020 ce e6 f0 3d 7b 29 b1 3d eb 57 02 3c 57 6e 91 bd
       0.117627725 0.0865049 0.007955532 -0.07101124
000030 15 61 0e 3d e7 26 a1 3b 67 b4 1a be 63 f7 fa bc
       0.034760553 0.0049179676 -0.1510788 -0.030635541
000040 85 cc 09 3d f8 49 87 3d 88 14 6c bd 28 b6 c6 bc
       0.03364231 0.06605905 -0.057636768 -0.02425678
000050 46 74 a5 3d fe 33 6e 3d b5 15 50 bd 5d 1f ac bd
       0.08078818 0.058155052 -0.05080195 -0.084044196
000060 fd b0 26 3d a6 20 e4 3c 36 94 e0 bc 6f 0e 83 3d
       0.040696133 0.0278476 -0.027414422 0.06399237
000070 30 25 03 be 5e 29 9a bb 9b 01 64 3d 7e 40 3d bc
       -0.12807155 -0.0047046384 0.055665594 -0.011551021
000080 49 a4 ae 3d 26 cc ae bd 94 ad 0c 3d cd f7 4e bd
       0.08527429 -0.08535032 0.034345224 -0.05052929
000090 43 57 ad bd 7e 87 a2 bd 1c f4 97 bd 13 2b de 3d
       -0.084639095 -0.07935999 -0.07419607 0.108480595
0000a0 b7 87 f8 3c c3 59 38 3d 50 cd e1 3c 6a dd 54 3d
       0.030338151 0.04500748 0.027563721 0.05196897
0000b0 7d ae 84 3b ee 70 b2 bd 4e 45 16 3d b5 3d 35 3b
       0.004049121 -0.08712946 0.036687188 0.0027655188
0000c0 d9 8d 07 3c 46 74 d8 bc 58 ec 53 3d d2 8c f8 3d
       0.008273565 -0.026422631 0.051739067 0.12136234
0000d0 ca 16 b5 bd 0e 4b 01 3d e9 5b da bc d1 ce 97 bd
       -0.08842237 0.03156572 -0.026655154 -0.07412494
0000e0 21 b9 c7 bc 59 a8 42 bc 73 13 cb bc ac dd 37 3d
       -0.024380269 -0.0118809575 -0.024789548 0.044889137
0000f0 0f 0c 73 bd 86 39 27 3d 84 45 d4 3d 85 d9 23 bb
       -0.05933767 0.040826343 0.103648216 -0.0025001478
000100 18 fa 6d 3d 3d cf 56 bd 93 ee 51 3d 92 6a 56 3d
       0.058099836 -0.05244373 0.051252913 0.052347727
000110 c1 b1 82 3d a2 d4 a7 bd 97 60 e2 3d 7a d1 b2 bd
       0.0638156 -0.08194853 0.11053579 -0.08731361
000120 3c 41 87 3d 83 e4 09 bd dd 9b 5d 3b a8 39 06 3c
       0.06604239 -0.03366519 0.0033814826 0.008192457
000130 1c 0b 88 bd b5 50 41 bd 78 77 40 bd 75 90 6e 3d
       -0.06642744 -0.04719611 -0.046988934 0.058243234
000140 2f e0 65 3d d7 56 14 bd d9 7a 15 3d 0d b4 97 bd
       0.056122 -0.03621563 0.03649411 -0.07407389
000150 e1 b1 33 bd 23 b2 90 bd e1 dc a5 3c fb 40 99 3d
       -0.04387081 -0.07065227 0.020246925 0.07483097
000160 73 1a 70 3c 4e 74 92 3d 33 f6 1b bc c8 83 51 bd
       0.0146547435 0.071510896 -0.009519148 -0.051151067
000170 09 4f ae bd 71 5d 88 3d 65 91 d4 3b 53 75 a2 bd
       -0.085111685 0.066584475 0.006487059 -0.07932534
000180 8e e0 20 bd 59 5d f5 bd 13 8a 82 bb df a4 32 3d
       -0.039276652 -0.11980695 -0.003983745 0.043614265
000190 d5 a0 a2 3d 14 82 ef 3b 06 fc 85 bd 99 a1 d0 bc
       0.079408325 0.0073092077 -0.0654221 -0.02546768
0001a0 7a ec 9a bd bf e5 c5 3d 4c d8 a6 3c 7e ee 02 bd
       -0.075646356 0.09662961 0.02036681 -0.031965725
0001b0 cf c0 f8 3c 33 d7 ee bd 3c 5d c9 bc 64 3c 19 3d
       0.030365376 -0.1166214 -0.02458059 0.03741111
0001c0 fd 58 d4 bd 0f a2 b3 bc c3 df 96 bc 66 68 f4 bc
       -0.10368536 -0.021927861 -0.018417245 -0.029834937
0001d0 ad 2c bc bc 4c 3c 50 3c cc 44 b3 bd 8c e6 03 bd
       -0.022970522 0.012709688 -0.08753356 -0.03220229
0001e0 73 85 a5 bd cb 4f ce bc b6 3e 86 bd 2a 9b 86 3d
       -0.08082094 -0.025184533 -0.0655493 0.06572564
0001f0 28 a8 f7 bc fc 0b 56 bd ec d1 da 3c 05 93 9e 3c
       -0.03023155 -0.052257523 0.026711427 0.019357214
000200 29 27 67 3d a5 78 a5 3d f1 b7 94 3d 98 fd 45 3d
       0.05643383 0.08079652 0.072616465 0.04833755
000210 dc 2a 9d bd e7 db 8b bd ec 63 4e bd 35 a5 3e bd
       -0.076741904 -0.068290524 -0.05038826 -0.046544272
000220 d3 da ac bb ea 5f df 3c d8 49 a9 bd 35 61 0b 3d
       -0.0052751093 0.027267415 -0.08266038 0.03402825
000230 86 d8 e2 3c d3 14 11 bd b6 d4 15 3d f9 59 a9 3d
       0.027691137 -0.03542025 0.03657981 0.08269114
000240 4f 40 c0 bd 2e fa 5d 3d 7c cc 5e 3d 85 a5 57 3d
       -0.09387266 0.054193668 0.05439423 0.052648086
000250 43 37 dc 3c 08 d5 3e 3c b0 8c 9e bd 58 cb a8 3c
       0.02688182 0.01164747 -0.07741678 0.020604774
000260 ed e8 8f bd 76 1c 12 3c d5 8f 93 3d 67 ad 4c 3d
       -0.07026849 0.008917918 0.07205168 0.049970057
000270 52 97 18 3d ae fc 51 bd 2d 79 8d 3b d3 89 1f bd
       0.037253685 -0.051266365 0.004317424 -0.0389498
000280 59 3b 6a bd ad c8 98 bd 05 6c 87 3d 3b db 63 3d
       -0.057185505 -0.07460151 0.066124 0.055628996
000290 9d 96 96 3b 69 ee ba bc 61 9c 99 bd 2b 23 7a bd
       0.004595591 -0.022818761 -0.0750053 -0.061068695
0002a0 74 82 5d 3c c5 6a 0c bd d6 97 24 3c ce fe aa 3d
       0.013519872 -0.03428151 0.010045966 0.083493814
0002b0 dc 3f 75 3d d0 70 91 bd 35 45 ab bd 30 95 82 bd
       0.059875354 -0.071015954 -0.083628096 -0.063761115
0002c0 1f b7 02 bd 9f e8 9d 3c 41 81 b5 3d c8 b7 cf bc
       -0.03191292 0.019275961 0.08862544 -0.025356188
0002d0 64 fb bb bd af 72 35 3d 71 45 8b bd 64 df 33 3d
       -0.09178808 0.044298824 -0.06800354 0.043914214
0002e0 f1 34 9f bd d2 97 cc 3c c7 ed 3d bd 0b 66 af 3d
       -0.0777377 0.024974737 -0.04636934 0.08564385
0002f0 d8 a2 13 bd 00 0a 53 bd 62 63 08 3d 7a 72 b3 bd
       -0.03604397 -0.05152321 0.033297904 -0.08762069
000300 d4 8b 8a bd 2d b7 16 3d a6 4f a4 bd bc 64 14 bd
       -0.06764951 0.036795784 -0.08023004 -0.03622888
000310 63 d9 3a bc 4e 34 5c bc 77 51 19 3c fe e4 1a 3d
       -0.011404368 -0.013440205 0.009357802 0.03781604
000320 ad f9 d5 ba 4d d5 9b bd 9a 14 ae bd a7 a1 1c bd
       -0.001632502 -0.07609043 -0.08500023 -0.0382401
000330 27 c9 ad 3c 9b 37 e9 3b 50 46 8a bd 56 32 af 3b
       0.021214081 0.0071172244 -0.06751692 0.0053465767
000340 9c 86 25 3c 53 5e 99 bd 42 9c 8a bd 7e 8e 14 3d
       0.010102894 -0.07488694 -0.06768085 0.036268704
000350 28 c9 90 bd 36 71 71 3d 8c 68 ab bd c9 8b b9 bd
       -0.070696175 0.058945857 -0.0836955 -0.09059865
000360 e6 64 9e bd d2 25 94 bd 82 bf a2 bd 53 92 80 bd
       -0.077340886 -0.07233776 -0.079466835 -0.06277909
000370 14 63 08 3d b5 93 47 3d b3 66 d8 3c fc 04 53 bd
       0.033297613 0.04872485 0.026416158 -0.051518425
000380 2f dc b0 3d 2e 6e 77 3d a0 4a 23 3d dc 8c 7f 3d
       0.08635747 0.06040781 0.03986609 0.062390193
000390 03 31 98 bc d2 d0 b3 bd a2 3b b4 3c 60 c2 5b bd
       -0.018578058 -0.08780064 0.022001091 -0.053652167
0003a0 06 82 41 3c f8 16 ad bd c3 08 0e 3d d3 f0 a2 bd
       0.011810785 -0.084516466 0.034676325 -0.0795609
0003b0 f8 71 45 3b 9f db b3 3c 49 ef a3 bd 4f 78 11 3d
       0.0030127745 0.02195531 -0.080046244 0.035515126
0003c0 14 56 c9 3b bf ec 6f 3d 3c 46 56 bd c8 23 ff bc
       0.0061442945 0.058575388 -0.052313074 -0.031144992
0003d0 a2 98 a7 bb b6 e0 51 bc 52 d4 95 bd c2 10 84 3d
       -0.005114631 -0.012809923 -0.073158875 0.06448509
0003e0 6c 05 67 bd 40 da 4d 3b db 06 66 3c 4d b2 a2 3d
       -0.056401655 0.0031410605 0.01403972 0.079441644
0003f0 85 2e 64 3a a5 a5 6f 3d bd f8 26 bd 3a 64 c3 3d
       0.0008704442 0.05850758 -0.04076456 0.09540601

fc2.bias f4 [84]
000000 cc ed 5e 3d 6d d0 1c 3b 46 85 d5 3c 0b 83 3b 3e
       0.054426 0.0023927942 0.026064526 0.18311708
000010 19 1a cf 3b 74 9d 58 3e 8f 95 57 3d 0c 25 b8 3d
       0.0063202498 0.21153814 0.052632865 0.08991441
000020 15 cf e1 3c 67 af a6 bd a5 7f cb 3e b9 aa a1 3e
       0.027564565 -0.08138924 0.39745823 0.31575564
000030 5a c8 f3 3c 00 3b 64 3b 14 f8 2d bc ed e4 23 3d
       0.029758621 0.0034825206 -0.010618228 0.040013243
000040 47 e1 d7 bc 50 af da bd 2c c9 5e bd fe e6 71 3e
       -0.026352538 -0.106779695 -0.05439107 0.23623273
000050 83 c5 00 3d d6 63 57 3e 90 d4 bb 3c 2c 1c cd 3d
       0.03143836 0.21034178 0.022928506 0.10015139
000060 30 c8 9c 3d cc 6b 81 3e 9e b9 23 3d 0c 73 57 3e
       0.0765537 0.25277555 0.03997194 0.2103998
000070 c9 46 ce bd b1 da 77 3c 2c 0e a3 bd e6 08 fd bd
       -0.10072095 0.015127824 -0.079616874 -0.12355213
000080 51 37 16 3c 38 c0 9d 3d 6e c0 1f be bb 57 37 be
       0.009168462 0.077026784 -0.1560075 -0.1790456
000090 a2 9a 1f b9 16 1a d3 bc 1d b9 09 3e 69 91 47 3e
       -0.00015221027 -0.025769275 0.13449521 0.19489063
0000a0 73 31 36 bd 09 26 86 bd 8f 87 35 3e c1 66 a5 bc
       -0.044480752 -0.065502234 0.17727493 -0.020190598
0000b0 b2 89 8f 3e f6 b7 cd bd 5f 28 f5 3d d6 eb 33 bd
       0.2803474 -0.100448534 0.11970591 -0.043926083
0000c0 41 64 92 3d d7 42 49 3e 0f 5d bb bb e3 63 0e 3c
       0.07148028 0.19654404 -0.0057178806 0.008690807
0000d0 0b 0c ae 3d 44 d0 26 bd 53 a5 54 bd 58 bc 3a 3e
       0.08498391 -0.04072596 -0.051915478 0.1823591
0000e0 90 0e 57 bd 58 4e 57 3e 12 ed 11 bd 5f cd cc 3d
       -0.052504122 0.2102598 -0.03562648 0.10000109
0000f0 1d 47 2a bd 9b fe 3b 3d b1 66 38 be 60 c9 f1 3d
       -0.041571725 0.045897108 -0.18007924 0.11805987
000100 31 5f 50 bc 2e 80 f4 3d 42 91 03 3e b2 7b 12 3e
       -0.012718008 0.11938511 0.1284838 0.14304999
000110 45 18 9d 3d 0a 55 97 3c 58 8b ce 3d 53 28 c9 3e
       0.07670645 0.018473167 0.100851715 0.39288577
000120 b6 a6 26 3e 47 43 86 3c 6d 04 6e bd 4b e8 6b bd
       0.16274533 0.016389502 -0.05810969 -0.05759458
000130 ca 17 6b 3d 0a f6 db 3d a2 23 50 3e d8 bb d3 bc
       0.057395734 0.107402876 0.20326093 -0.025846407
000140 1a 46 6f 3d b7 07 6a bd 40 7f 97 bd 3d 69 b5 bd
       0.058416463 -0.057136264 -0.07397318 -0.08857963

fc3.weight f4 [10, 84]
000000 86 a0 89 3d a8 2b 64 bd 45 11 26 bd bd fd 61 be
       0.067200705 -0.055705696 -0.040543813 -0.2206945
000010 fa ca 00 3d 53 fe 11 3c b5 b3 9a be d4 c4 9f 3d
       0.031443574 0.008910733 -0.3021523 0.07801214
000020 d4 52 3b bd 27 01 bf 3c 7b ce 94 3e ac 5e 2a 3e
       -0.045733288 0.02331598 0.29063782 0.16637677
000030 77 f7 28 bc ce 14 f9 3d 1a 74 20 3d da 82 15 3a
       -0.0103129065 0.12162171 0.039173223 0.00057033973
000040 cb 16 2f 3e 00 89 f2 3d f2 11 bd ba 7e df 9f bc
       0.17098539 0.11842537 -0.0014424904 -0.019515749
000050 42 c2 9c be f0 06 c9 bd e1 2d a5 bd 1d a6 55 3e
       -0.30616957 -0.09815776 -0.08065391 0.20864148
000060 d3 e0 94 bd 24 e0 4a bd c8 15 63 3d 35 d8 0e bd
       -0.07269444 -0.049530163 0.055440694 -0.03487416
000070 80 00 a2 3c 4b 7a ce 3d cf a2 c4 3d 41 f7 7f bc
       0.019775629 0.10081919 0.09601366 -0.015622915
000080 b4 60 81 bc 86 28 f1 bd 64 e7 17 3e 1c 9a c0 3d
       -0.015793182 -0.11775307 0.14834362 0.09404394
000090 04 75 21 3e 0a 77 0c 3e 9a 75 01 be 93 fa 29 3e
       0.15767294 0.13717285 -0.12642518 0.16599493
0000a0 f8 cf 16 3e 53 a7 4f bd 0c 0f 85 be 79 4a 31 3e
       0.14727771 -0.050696682 -0.25988042 0.17313565
0000b0 8e 22 4d 3e 7e 49 4e be 47 3e 48 be 0b bc 2b bc
       0.20032713 -0.20145223 -0.19555007 -0.010481845
0000c0 bf ac a1 3d 3b 93 0d 3e e0 7b 9a bc 1e b2 5a bc
       0.07894277 0.13825695 -0.018857896 -0.0133481305
0000d0 44 e0 12 be 8a 49 00 3e 97 36 28 be 45 59 1d bd
       -0.14343363 0.12528053 -0.16427074 -0.038415212
0000e0 e9 2d e9 3c da 24 d4 3d ef a2 d5 3d 6c e6 37 bd
       0.028464274 0.103585914 0.10431468 -0.04489748
0000f0 2c 8d c8 bc 56 0f d1 bd 96 63 d3 bd ff 0c 8a bd
       -0.024481378 -0.10208003 -0.10321729 -0.0674076
000100 4c f1 ae bb ad 94 9e bd 71 b6 4a be 9f 3c 68 3e
       -0.0053388234 -0.077432014 -0.19796158 0.22679375
000110 f4 2b 04 3e 5c 80 85 bd bf 44 7c 3e d8 3a 86 be
       0.12907392 -0.06518623 0.246356 -0.2621677
000120 90 51 5b 3e e3 25 87 bd 88 fb 54 bd c0 69 2e be
       0.21417832 -0.06599023 -0.05199769 -0.17032528
000130 30 6a ba 3d 6f 17 40 3e 48 78 08 3e b4 77 15 3e
       0.09102285 0.18758939 0.13327134 0.14596444
000140 94 4b 9a be a4 e5 73 3d c0 98 f6 3c 0c 0c b6 bd
       -0.30135787 0.059545174 0.030102134 -0.088890165
000150 cd 95 fd bd 8c 03 68 3d 2c ad e1 bd 2d d0 08 bd
       -0.12382088 0.056644008 -0.11019358 -0.033401657
000160 2a 2d 33 bd 2c a5 6e bd 34 ef dd bd 03 37 20 bd
       -0.043744244 -0.05826299 -0.1083664 -0.039114963
000170 eb 04 f0 bd be 04 42 bd 2b 45 b2 3d 0b f0 7b be
       -0.11719688 -0.047367804 0.08704599 -0.24603288
000180 80 e5 e4 3c 14 64 c9 3d ca 9f e6 bc 00 89 dd bc
       0.027941465 0.098335415 -0.028152365 -0.027042866
000190 e4 3c 83 3e 00 23 2d 3c 21 eb cd 3d e8 e1 2c be
       0.25632393 0.010567427 0.10054613 -0.16883051
0001a0 27 e0 56 3d 7b 95 e6 bd c2 87 02 3e eb 68 45 be
       0.052459862 -0.1125898 0.127471 -0.19278304
0001b0 e7 d6 02 3c 92 45 ac be b4 0e 26 3e b3 a7 6a be
       0.007985807 -0.33646828 0.16216546 -0.22915535
0001c0 05 f1 be 3d 2f 7a d5 bd e1 e1 8b 3d 22 5c 4d bb
       0.093233146 -0.10423695 0.06830192 -0.0031335433
0001d0 d2 2b ea 3c 7d 59 22 3e a2 ce 8f bc 90 20 4e 3d
       0.028585348 0.1585445 -0.017554585 0.050324023
0001e0 98 f1 76 3e 0f 29 52 be 1c 1b 4a be 5a e5 75 be
       0.24115598 -0.20523475 -0.19736904 -0.24013272
0001f0 4e a6 af bc fd e3 d3 3d a8 db 93 3c 9c e2 92 bc
       -0.021441605 0.1034622 0.018049076 -0.017930321
000200 2a 32 6f be ac bf c7 bc b3 ea b9 bd 2d 61 75 3d
       -0.2335898 -0.024383388 -0.090779684 0.059907127
000210 1f 40 f2 3b 91 af 21 be f2 fd d8 3d 6d 64 51 bc
       0.0073928977 -0.1578963 0.10595311 -0.012780291
000220 ea 6f d6 bd 0f 17 09 3e ac f1 40 3d e1 8c 2d bd
       -0.10470565 0.13387702 0.047105476 -0.04237068
000230 cb a2 c1 3d 32 68 e7 bc 3e 36 1e 3e 46 52 e5 bd
       0.094548784 -0.028247926 0.15450379 -0.11197333
000240 f9 d3 5b bc f7 75 05 be 69 b8 1b 3e 0e fd 38 bd
       -0.013417237 -0.13033281 0.15207066 -0.045163207
000250 1e 34 1d bd 96 c9 13 be 7f 59 be bd e8 48 06 bd
       -0.03837978 -0.14432368 -0.09294414 -0.032784373
000260 bb da 42 be 57 b2 a1 bd ef e8 bb 3e 69 16 95 be
       -0.19028752 -0.07895344 0.36701152 -0.2911866
000270 72 ab b8 3e 5e 64 d7 3c 98 f8 83 bd 5a c7 bf 3e
       0.36068302 0.026292976 -0.064439 0.3745678
000280 af b4 53 be 7a 42 fa bd 8d 73 de bd 9d 2d 2b 3e
       -0.20674394 -0.12219711 -0.10861883 0.16716619
000290 fe 38 73 3e e0 92 2e bd 37 0a f4 bc d0 67 84 3d
       0.2375221 -0.04262054 -0.029790027 0.06465113
0002a0 e9 f1 55 3e 66 c6 6c 3d ab 1d af 3d 24 d4 c1 3d
       0.20893063 0.057806395 0.085505806 0.09464291
0002b0 27 c3 db bd 17 aa cd 3d 1c df 10 be e6 cd 43 3e
       -0.10730582 0.10042208 -0.1414761 0.19121513
0002c0 bb 09 07 bd 3c ec 6a 3d 3e 9b 61 be 2c c8 66 3e
       -0.032968264 0.057354197 -0.22031876 0.22537297
0002d0 d2 cd 5d 3d d2 97 3c 3e e6 e6 f3 bc fc c1 b9 bd
       0.054151364 0.1841729 -0.029773187 -0.09070203
0002e0 2d 1b 40 bd 25 48 93 bd 4f 3b 73 3d 4b 11 99 3d
       -0.046900917 -0.07191495 0.059382733 0.074740015
0002f0 9b 33 e6 bd e5 0c f0 3d a8 b0 99 bd 50 a0 ed bd
       -0.11240312 0.117212094 -0.07504398 -0.11602843
000300 53 93 89 3c 6b c5 ec 3d a9 51 91 bd b3 b1 ef 3d
       0.016793882 0.11561092 -0.070956536 0.11703815
000310 bf 6f 4b bd 0f 09 79 3e c5 a7 aa 3d e8 de 65 3d
       -0.049667116 0.24319862 0.08332781 0.056120783
000320 47 01 26 3e b9 54 19 bd 69 c4 b3 bd 7e 4d 32 bd
       0.16211425 -0.037434313 -0.08777697 -0.043530934
000330 a3 df e0 bd a7 41 da 3d b0 ca 33 3e c5 e4 a6 3e
       -0.10980155 0.106570534 0.17557788 0.32596412
000340 c1 94 89 3d c2 42 12 3c df e1 9c 3e 01 bd 96 3d
       0.06717826 0.008927049 0.30641076 0.073602684
000350 5b 17 1c 3d 6e d9 41 3d 17 a9 bb bd ca 24 28 bc
       0.03810821 0.047326498 -0.09163111 -0.010262677
000360 7c c8 86 bd da fd 95 bd eb 0b 0c be d3 da 02 bd
       -0.06581208 -0.07323809 -0.13676421 -0.03194697
000370 e0 1c 77 3d a7 f7 98 bd 4e ae c8 bd 7b 83 e2 3d
       0.06033027 -0.07469111 -0.09798871 0.11060234
000380 01 c2 c4 bd db 5e 6a bd d8 c7 2a bd 93 1c 22 3d
       -0.09607316 -0.057219367 -0.041694492 0.03957803
000390 63 cc 42 be 7d f0 71 bd 21 52 7d 3c 6a e3 4d 3e
       -0.1902328 -0.059067238 0.015461476 0.20106283
0003a0 5b f5 aa 3c ad e0 e1 3b ed b1 80 3d 83 1c 36 3e
       0.020868948 0.0068932385 0.06283937 0.17784314
0003b0 2e 1d 10 3e 0d 4e 3c 3e 72 12 05 be 55 be f5 3d
       0.14073631 0.18389149 -0.12995318 0.119991936
0003c0 f8 6a 11 be 73 9b 14 3e 48 e4 d0 3c 1b 6b 41 be
       -0.14200962 0.14512424 0.025499478 -0.18888514
0003d0 e9 64 2c be d6 18 b8 3d 93 6e 04 3e d3 fb f1 3d
       -0.16835369 0.08989112 0.12932806 0.1181561
0003e0 4c fb 09 3d 0d b8 17 bd 81 aa 80 bd 2a b5 6a ba
       0.03368692 -0.03704076 -0.06282521 -0.0008953387
0003f0 2f 15 9f 3d 3a 7a 87 3d 2d 37 39 bd f7 ae 2d 3d
       0.07767712 0.0661511 -0.045218635 0.042403188

fc3.bias f4 [10]
000000 b0 b3 60 bd 38 ae 11 bf 38 87 3a 3e f8 82 c5 3e
       -0.054858863 -0.5690646 0.18215644 0.38576484
000010 cc 13 e1 3e b8 e8 d9 bd 97 25 2f 3d a1 d9 b8 be
       0.43960416 -0.10640091 0.042760458 -0.36103538
000020 42 1e 13 3f bf a0 4d be
       0.57468045 -0.20080851
